…
,"model.add(keras.layers.Dropout(0.4))\n","model.add(keras.layers.Dense(10, activation='softmax'))"]},{"cell_type":"code","execution_count":null,"metadata":{"colab":{"base_uri":"https://localhost:8080/"},"id":"1CFKlE-B5QcC","outputId":"c6bae36a-5df6-4e7a-ab21-aec521d67a47"},"outputs":[{"name":"stdout","output_type":"stream","text":["Model: \"sequential\"\n","_________________________________________________________________\n"," Layer (type)                Output Shape              Param #   \n","=================================================================\n"," conv2d (Conv2D)             (None, 28, 28, 32)        320       \n","                                                                 \n"," max_pooling2d (MaxPooling2D  (None, 14, 14, 32)       0         \n"," )                                                               \n","                                                                 \n"," conv2d_1 (Conv2D)           (None, 14, 14, 64)        18496     \n","                                                                 \n"," max_pooling2d_1 (MaxPooling  (None, 7, 7, 64)         0         \n"," 2D)                                                             \n","                                                                 \n"," flatten (Flatten)           (None, 3136)              0         \n","                                                                 \n"," dense (Dense)               (None, 100)               313700    \n","                                                                 \n"," dropout (Dropout)           (None, 100)               0         \n","                                                                 \n"," dense_1 (Dense)             (None, 10)                1010      \n","                                                                 \n","=================================================================\n","Total params: 333,526\n","Trainable params: 333,526\n","Non-trainable params: 0\n","_________________________________________________________________\n"]}],"source":["model.summary()"]},{"cell_type":"code","execution_count":null,"metadata":{"colab":
…
